…
Transforming the datasets... Number of word features=  5233  char features=  178
7467 train sequences
4.403630971908569
Pad sequences (samples x time)
x_train shape: (7467, 2000)
Transforming the labels... Class labels =  ['A1', 'C1', 'B1', 'B2', 'A2']
0.00481104850769043
Build model...  1
__________________________________________________________________________________________________
Layer (type)                    Output Shape         Param #     Connected to                     
==================================================================================================
char_input (InputLayer)         (None, 2000)         0                                            
__________________________________________________________________________________________________
word_input (InputLayer)         (None, 400)          0                                            
__________________________________________________________________________________________________
embedding_1 (Embedding)         (None, 2000, 16)     2848        char_input[0][0]                 
__________________________________________________________________________________________________
embedding_2 (Embedding)         (None, 400, 32)      167456      word_input[0][0]                 
__________________________________________________________________________________________________
spatial_dropout1d_1 (SpatialDro (None, 2000, 16)     0           embedding_1[0][0]                
__________________________________________________________________________________________________
spatial_dropout1d_2 (SpatialDro (None, 400, 32)      0           embedding_2[0][0]                
__________________________________________________________________________________________________
flatten_1 (Flatten)             (None, 32000)        0           spatial_dropout1d_1[0][0]        
__________________________________________________________________________________________________
flatten_2 (Flatten)             (None, 12800)        0           spatial_dropout1d_2[0][0]        
__________________________________________________________________________________________________
concatenate_1 (Concatenate)     (None, 44800)        0           flatten_1[0][0]                  
                                                                 flatten_2[0][0]                  
__________________________________________________________________________________________________
dense_1 (Dense)                 (None, 4)            179204      concatenate_1[0][0]              
__________________________________________________________________________________________________
concatenate_2 (Concatenate)     (None, 44804)        0           concatenate_1[0][0]              
                                                                 dense_1[0][0]                    
__________________________________________________________________________________________________
dropout_1 (Dropout)             (None, 44804)        0           concatenate_2[0][0]              
__________________________________________________________________________________________________
dense_2 (Dense)                 (None, 5)            224025      dropout_1[0][0]                  
==================================================================================================
Total params: 573,533
Trainable params: 573,533
Non-trainable params: 0
__________________________________________________________________________________________________
Epoch 1/8

 128/6718 [..............................] - ETA: 1:17 - loss: 2.2993 - dense_2_loss: 1.6082 - dense_1_loss: 1.3822 - dense_2_acc: 0.2188 - dense_1_acc: 0.2344
…
